checkpoint/xor_net_22_Sigmoid.pt (torch, 1631 bytes, 4 tensors)

0.weight f4 [8, 2]
0	0x3fa1ac31	1.2630674
1	0x3fa3bc58	1.2791853
2	0xbe32d74a	-0.17464939
3	0x3f34f8b9	0.7069202
4	0xbddff6cf	-0.10935747
5	0x3e2f4470	0.1711595
6	0xbec84fef	-0.39123484
7	0x3ea561a5	0.3230106
8	0x3f1b3f77	0.60643715
9	0xbf101f27	-0.56297535
10	0x3f17d98d	0.5931633
11	0x3e347854	0.17624027
12	0x3f1ae721	0.60508925
13	0x3e38fec0	0.1806593
14	0x3eba4004	0.36376965
15	0xbdd851c5	-0.10562471

0.bias f4 [8]
0	0x3f08e4bd	0.53474027
1	0x3df9e192	0.12201227
2	0xbea4e9fd	-0.3220977
3	0x3df57455	0.11985079
4	0xbeb64a74	-0.35603678
5	0xbd4ce434	-0.05002232
6	0xbead683c	-0.33868587
7	0x3eeed2f6	0.46645325

2.weight f4 [2, 8]
0	0xbf3eecf8	-0.74580336
1	0x3e1441d4	0.14478236
2	0xbc3b86e0	-0.011445731
3	0xbd5f28ca	-0.05448226
4	0xbcf1e04a	-0.029525895
5	0xbdfb5592	-0.122721806
6	0x3f103f18	0.56346273
7	0xbdbe8704	-0.09303096
8	0x3f3d5b2e	0.73967254
9	0xbe7ee8e2	-0.24893525
10	0xbe5010fc	-0.20318979
11	0x3d775042	0.060379274
12	0x3df1a895	0.117997326
13	0x3d726759	0.05918059
14	0xbe527139	-0.20551004
15	0xbea33a26	-0.318803

2.bias f4 [2]
0	0x3e9cc2dc	0.30617416
1	0xbe9d368b	-0.30705675
